data/Tmodel.npy (npy, 864160 bytes, 1 tensors)

array (column-major) f8 [4, 27001]
000000 80 e5 d0 22 db f9 06 40 00 1f 85 eb 51 b8 08 40
       2.872000000000014 3.090000000000032
000010 00 75 93 18 04 56 07 40 00 9c c4 20 b0 72 07 40
       2.91700000000003 2.93100000000004
000020 00 23 db f9 7e 6a 07 40 80 16 d9 ce f7 53 09 40
       2.927000000000021 3.165999999999997
000030 80 0c 02 2b 87 16 08 40 00 d3 4d 62 10 58 08 40
       3.011000000000024 3.0430000000000064
000040 00 f8 53 e3 a5 9b 0a 40 00 02 2b 87 16 d9 0b 40
       3.326000000000022 3.4809999999999945
000050 80 b8 1e 85 eb 51 0b 40 00 1d 5a 64 3b df 0a 40
       3.4150000000000205 3.3590000000000373
000060 80 8f c2 f5 28 5c 0f 40 c0 c2 f5 28 5c 0f 10 40
       3.920000000000016 4.015000000000043
000070 80 3f 35 5e ba 49 0f 40 00 ac 1c 5a 64 3b 0e 40
       3.9110000000000014 3.7789999999999964
000080 c0 6e 12 83 c0 4a 12 40 40 df 4f 8d 97 6e 12 40
       4.573000000000036 4.608000000000004
000090 00 a2 45 b6 f3 fd 12 40 40 2d b2 9d ef 27 12 40
       4.748000000000047 4.539000000000044
0000a0 00 a6 9b c4 20 b0 12 40 40 5e ba 49 0c 02 13 40
       4.6720000000000255 4.7520000000000095
0000b0 c0 45 b6 f3 fd 54 13 40 00 29 5c 8f c2 75 12 40
       4.833000000000027 4.615000000000009
0000c0 00 79 e9 26 31 88 12 40 80 e5 d0 22 db f9 12 40
       4.633000000000038 4.744000000000028
0000d0 80 3d 0a d7 a3 70 12 40 80 95 43 8b 6c e7 11 40
       4.610000000000014 4.475999999999999
0000e0 80 3f 35 5e ba 49 13 40 80 ba 49 0c 02 2b 14 40
       4.822000000000003 5.04200000000003
0000f0 80 c0 ca a1 45 36 13 40 00 7f 6a bc 74 13 13 40
       4.802999999999997 4.7690000000000055
000100 40 db f9 7e 6a 3c 14 40 00 d1 22 db f9 fe 14 40
       5.059000000000026 5.249000000000024
000110 80 62 10 58 39 b4 14 40 00 a4 70 3d 0a 57 14 40
       5.176000000000045 5.085000000000036
000120 c0 f1 d2 4d 62 90 15 40 40 83 c0 ca a1 45 16 40
       5.3910000000000196 5.5680000000000405
000130 40 87 16 d9 ce f7 15 40 00 56 0e 2d b2 9d 15 40
       5.492000000000019 5.403999999999996
000140 80 6a bc 74 93 98 16 40 c0 70 3d 0a d7 23 17 40
       5.649000000000001 5.785000000000025
000150 80 b8 1e 85 eb 51 17 40 c0 ef a7 c6 4b b7 16 40
       5.830000000000041 5.6790000000000305
000160 c0 c2 f5 28 5c 8f 15 40 40 b4 c8 76 be 1f 16 40
       5.390000000000043 5.531000000000006
000170 00 7f 6a bc 74 13 16 40 40 87 16 d9 ce 77 15 40
       5.5190000000000055 5.367000000000019
000180 c0 41 60 e5 d0 a2 13 40 40 5a 64 3b df 4f 14 40
       4.909000000000049 5.078000000000031
000190 c0 1a 2f dd 24 06 14 40 80 91 ed 7c 3f b5 13 40
       5.006000000000029 4.927000000000021
0001a0 c0 6e 12 83 c0 4a 13 40 80 8d 97 6e 12 03 14 40
       4.823000000000036 5.003000000000043
0001b0 00 79 e9 26 31 08 14 40 80 91 ed 7c 3f b5 13 40
       5.008000000000038 4.927000000000021
0001c0 c0 99 99 99 99 99 13 40 00 a4 70 3d 0a 57 14 40
       4.900000000000034 5.085000000000036
0001d0 c0 9d ef a7 c6 4b 14 40 00 fa 7e 6a bc f4 13 40
       5.074000000000012 4.989000000000033
0001e0 c0 1a 2f dd 24 86 13 40 40 db f9 7e 6a 3c 14 40
       4.881000000000029 5.059000000000026
0001f0 c0 41 60 e5 d0 22 14 40 40 b2 9d ef a7 c6 13 40
       5.034000000000049 4.944000000000017
000200 80 0c 02 2b 87 16 13 40 c0 c6 4b 37 89 c1 13 40
       4.772000000000048 4.939000000000021
000210 00 23 db f9 7e ea 13 40 40 5e ba 49 0c 82 13 40
       4.979000000000042 4.8770000000000095
000220 00 fc a9 f1 d2 4d 12 40 80 8f c2 f5 28 dc 12 40
       4.576000000000022 4.715000000000032
000230 00 25 06 81 95 43 13 40 80 e9 26 31 08 ac 12 40
       4.816000000000031 4.668000000000006
000240 c0 47 e1 7a 14 ae 11 40 80 bc 74 93 18 04 12 40
       4.420000000000016 4.504000000000019
000250 80 68 91 ed 7c 3f 12 40 00 00 00 00 00 80 11 40
       4.562000000000012 4.375
000260 80 e3 a5 9b c4 20 12 40 80 e1 7a 14 ae 47 12 40
       4.532000000000039 4.57000000000005
000270 00 00 00 00 00 00 12 40 80 be 9f 1a 2f 5d 11 40
       4.5 4.341000000000008
000280 80 14 ae 47 e1 fa 11 40 80 66 66 66 66 66 12 40
       4.4950000000000045 4.600000000000023
000290 80 eb 51 b8 1e 05 12 40 00 29 5c 8f c2 75 11 40
       4.5049999999999955 4.365000000000009
0002a0 c0 49 0c 02 2b 87 12 40 c0 20 b0 72 68 11 13 40
       4.632000000000005 4.766999999999996
0002b0 00 27 31 08 ac 9c 12 40 80 6a bc 74 93 18 12 40
       4.65300000000002 4.524000000000001
0002c0 80 8d 97 6e 12 83 12 40 c0 20 b0 72 68 11 13 40
       4.628000000000043 4.766999999999996
0002d0 c0 ed 7c 3f 35 de 12 40 00 d5 78 e9 26 31 12 40
       4.717000000000041 4.548000000000002
0002e0 40 0a d7 a3 70 3d 14 40 40 0a d7 a3 70 bd 14 40
       5.060000000000002 5.185000000000002
0002f0 c0 1e 85 eb 51 38 14 40 40 58 39 b4 c8 76 13 40
       5.055000000000007 4.866000000000042
000300 00 27 31 08 ac 9c 15 40 40 89 41 60 e5 d0 15 40
       5.40300000000002 5.454000000000008
000310 80 64 3b df 4f 0d 15 40 80 c0 ca a1 45 36 14 40
       5.263000000000034 5.052999999999997
000320 80 95 43 8b 6c e7 16 40 80 12 83 c0 ca 21 17 40
       5.725999999999999 5.7830000000000155
000330 c0 16 d9 ce f7 53 17 40 80 37 89 41 60 65 16 40
       5.8320000000000505 5.599000000000046
000340 00 a8 c6 4b 37 89 16 40 40 83 c0 ca a1 c5 16 40
       5.6340000000000146 5.6930000000000405
000350 80 e1 7a 14 ae 47 17 40 00 aa f1 d2 4d 62 16 40
       5.82000000000005 5.596000000000004
000360 80 e5 d0 22 db f9 16 40 40 db f9 7e 6a bc 17 40
       5.744000000000028 5.934000000000026
000370 40 d7 a3 70 3d 0a 17 40 40 87 16 d9 ce f7 16 40
       5.760000000000048 5.742000000000019
000380 00 cf f7 53 e3 a5 13 40 c0 45 b6 f3 fd d4 14 40
       4.912000000000035 5.208000000000027
000390 40 89 41 60 e5 d0 14 40 00 fa 7e 6a bc f4 14 40
       5.204000000000008 5.239000000000033
0003a0 40 31 08 ac 1c 5a 13 40 c0 97 6e 12 83 c0 12 40
       4.838000000000022 4.688000000000045
0003b0 40 60 e5 d0 22 db 15 40 00 23 db f9 7e 6a 15 40
       5.463999999999999 5.354000000000042
0003c0 c0 70 3d 0a d7 a3 14 40 80 e9 26 31 08 2c 15 40
       5.160000000000025 5.293000000000006
0003d0 40 b0 72 68 91 6d 15 40 00 d1 22 db f9 fe 14 40
       5.357000000000028 5.249000000000024
0003e0 c0 6c e7 fb a9 f1 14 40 00 a4 70 3d 0a d7 14 40
       5.236000000000047 5.210000000000036
0003f0 40 b4 c8 76 be 1f 17 40 80 14 ae 47 e1 fa 15 40
       5.781000000000006 5.4950000000000045
000400 80 3d 0a d7 a3 f0 15 40 40 04 56 0e 2d b2 15 40
       5.485000000000014 5.424000000000035
000410 00 a2 45 b6 f3 fd 17 40 80 e5 d0 22 db f9 16 40
       5.998000000000047 5.744000000000028
000420 80 64 3b df 4f 8d 14 40 40 5a 64 3b df cf 14 40
       5.138000000000034 5.203000000000031
000430 80 3d 0a d7 a3 70 15 40 80 66 66 66 66 e6 14 40
       5.360000000000014 5.225000000000023
000440 00 29 5c 8f c2 f5 0e 40 00 a8 c6 4b 37 89 0f 40
       3.8700000000000045 3.9420000000000073
000450 00 56 0e 2d b2 1d 10 40 00 25 06 81 95 43 0f 40
       4.028999999999996 3.9080000000000155
000460 00 27 31 08 ac 1c 09 40 80 62 10 58 39 b4 09 40
       3.13900000000001 3.2130000000000223
000470 80 39 b4 c8 76 be 09 40 80 e3 a5 9b c4 20 09 40
       3.2180000000000177 3.1410000000000196
000480 00 8c 6c e7 fb a9 fd 3f 00 fe d4 78 e9 26 00 40
       1.8540000000000418 2.0190000000000055
000490 00 30 dd 24 06 81 ff 3f 00 bb 49 0c 02 2b ff 3f
       1.969000000000051 1.948000000000036
0004a0 00 40 35 5e ba 49 fe 3f 00 98 6e 12 83 c0 00 40
       1.893000000000029 2.094000000000051
0004b0 00 50 8d 97 6e 12 00 40 00 96 43 8b 6c e7 ff 3f
       2.0090000000000146 1.9940000000000282
0004c0 00 2b 87 16 d9 ce f3 3f 00 b3 9d ef a7 c6 f7 3f
       1.2379999999999995 1.4860000000000468
0004d0 00 46 b6 f3 fd d4 f6 3f 00 fa 7e 6a bc 74 f7 3f
       1.427000000000021 1.4660000000000082
0004e0 00 0c d7 a3 70 3d d2 3f 00 2e b2 9d ef a7 e2 3f
       0.285000000000025 0.5830000000000268
0004f0 00 7c 14 ae 47 e1 e2 3f 00 70 12 83 c0 ca e5 3f
       0.5900000000000318 0.68100000000004
000500 00 88 41 60 e5 d0 e2 bf 00 38 df 4f 8d 97 d6 bf
       -0.5879999999999654 -0.3529999999999518
000510 00 90 18 04 56 0e d5 bf 00 6c 12 83 c0 ca d1 bf
       -0.3289999999999509 -0.27799999999996317
000520 00 3c 0a d7 a3 70 e9 bf 00 d8 ce f7 53 e3 e1 bf
       -0.7949999999999591 -0.5589999999999691
000530 00 d0 22 db f9 7e e6 bf 00 6c e7 fb a9 f1 e2 bf
       -0.7029999999999745 -0.5919999999999845
000540 00 fc a9 f1 d2 4d e6 bf 00 04 81 95 43 8b dc bf
       -0.6970000000000027 -0.44599999999996953
000550 00 b2 9d ef a7 c6 e7 bf 00 38 b4 c8 76 be df bf
       -0.742999999999995 -0.4959999999999809
000560 00 70 3d 0a d7 a3 e4 bf 00 08 d7 a3 70 3d da bf
       -0.6449999999999818 -0.40999999999996817
000570 00 34 5e ba 49 0c e2 bf 00 40 35 5e ba 49 cc bf
       -0.5639999999999645 -0.22100000000000364
000580 00 98 99 99 99 99 e5 bf 00 30 08 ac 1c 5a e0 bf
       -0.6749999999999545 -0.5109999999999673
000590 00 d4 78 e9 26 31 e0 bf 00 c0 f5 28 5c 8f c2 bf
       -0.5059999999999718 -0.1449999999999818
0005a0 00 b8 1e 85 eb 51 e8 bf 00 e4 d0 22 db f9 e6 bf
       -0.7599999999999909 -0.7179999999999609
0005b0 00 3c 0a d7 a3 70 e5 bf 00 c8 76 be 9f 1a df bf
       -0.6699999999999591 -0.48599999999999
0005c0 00 3d 0a d7 a3 70 f1 bf 00 16 d9 ce f7 53 f1 bf
       -1.089999999999975 -1.08299999999997
0005d0 00 14 ae 47 e1 7a f0 bf 00 d8 ce f7 53 e3 ed bf
       -1.0299999999999727 -0.9339999999999691
0005e0 00 16 d9 ce f7 53 f5 bf 00 dd 24 06 81 95 f3 bf
       -1.33299999999997 -1.2239999999999895
0005f0 00 3f 35 5e ba 49 f4 bf 00 c0 ca a1 45 b6 f1 bf
       -1.2679999999999723 -1.106999999999971
000600 00 ef a7 c6 4b 37 f7 bf 00 22 db f9 7e 6a f4 bf
       -1.450999999999965 -1.2759999999999536
000610 00 06 81 95 43 8b f6 bf 00 41 60 e5 d0 22 f3 bf
       -1.4089999999999918 -1.1959999999999695
000620 00 be 9f 1a 2f dd f6 bf 00 a8 c6 4b 37 89 f5 bf
       -1.4289999999999736 -1.3460000000000036
000630 00 7d 3f 35 5e ba f5 bf 00 ed 7c 3f 35 5e f4 bf
       -1.358000000000004 -1.2729999999999677
000640 00 12 83 c0 ca a1 f3 bf 00 64 3b df 4f 8d f1 bf
       -1.2269999999999754 -1.09699999999998
000650 00 35 5e ba 49 0c f6 bf 00 6c e7 fb a9 f1 f4 bf
       -1.377999999999986 -1.308999999999969
000660 00 40 df 4f 8d 97 ce 3f 00 92 ed 7c 3f 35 e2 3f
       0.23900000000003274 0.5690000000000168
000670 00 00 27 31 08 ac ac 3f 00 80 be 9f 1a 2f bd 3f
       0.05600000000004002 0.11400000000003274
000680 00 56 0e 2d b2 9d fd 3f 80 60 e5 d0 22 db 01 40
       1.850999999999999 2.2320000000000277
000690 00 86 eb 51 b8 1e fb 3f 00 ac 1c 5a 64 3b fb 3f
       1.69500000000005 1.7019999999999982
0006a0 80 b6 f3 fd d4 78 07 40 80 c0 ca a1 45 b6 09 40
       2.934000000000026 3.2139999999999986
0006b0 80 12 83 c0 ca a1 07 40 80 5e ba 49 0c 02 07 40
       2.9540000000000077 2.876000000000033
0006c0 80 12 83 c0 ca a1 0b 40 00 f8 53 e3 a5 9b 0d 40
       3.4540000000000077 3.701000000000022
0006d0 00 4e 62 10 58 39 0d 40 00 71 3d 0a d7 a3 0c 40
       3.65300000000002 3.580000000000041
0006e0 00 a0 1a 2f dd 24 0d 40 80 04 56 0e 2d b2 0e 40
       3.643000000000029 3.837000000000046
0006f0 80 b8 1e 85 eb 51 0f 40 00 9a 99 99 99 99 0e 40
       3.9150000000000205 3.8250000000000455
000700 00 4a 0c 02 2b 87 0c 40 80 5c 8f c2 f5 28 0e 40
       3.566000000000031 3.7700000000000387
000710 80 b8 1e 85 eb 51 0e 40 00 a2 45 b6 f3 fd 0d 40
       3.7900000000000205 3.7490000000000236
000720 80 b0 72 68 91 ed 05 40 80 37 89 41 60 e5 07 40
       2.7410000000000423 2.987000000000023
000730 80 0a d7 a3 70 3d 07 40 00 fe d4 78 e9 26 07 40
       2.9050000000000296 2.8940000000000055
000740 00 d2 4d 62 10 58 ed bf 00 2c b2 9d ef a7 e2 bf
       -0.9169999999999732 -0.58299999999997
000750 00 e8 26 31 08 ac d4 bf 00 d8 78 e9 26 31 d8 3f
       -0.3229999999999791 0.37800000000004275
000760 00 83 c0 ca a1 45 fc bf 00 4f 8d 97 6e 12 f9 bf
       -1.766999999999996 -1.5669999999999504
000770 00 ca a1 45 b6 f3 f7 bf 00 8a 6c e7 fb a9 ed bf
       -1.4969999999999573 -0.9269999999999641
000780 00 64 3b df 4f 8d f1 bf 00 ac 1c 5a 64 3b f9 bf
       -1.09699999999998 -1.5769999999999982
000790 00 62 10 58 39 b4 e4 bf 00 66 66 66 66 66 e6 bf
       -0.6469999999999914 -0.6999999999999886
0007a0 00 00 dd 24 06 81 95 bf 00 e8 51 b8 1e 85 db bf
       -0.020999999999958163 -0.42999999999995
0007b0 00 14 ae 47 e1 7a fa bf 80 be 9f 1a 2f dd 01 c0
       -1.6549999999999727 -2.233000000000004
0007c0 00 00 2b 87 16 d9 de bf 00 ce f7 53 e3 a5 ef bf
       -0.4819999999999709 -0.9889999999999759
0007d0 00 10 58 39 b4 c8 00 c0 00 b2 9d ef a7 c6 02 c0
       -2.0979999999999563 -2.34699999999998
0007e0 00 87 16 d9 ce f7 0a c0 80 22 db f9 7e 6a 09 c0
       -3.370999999999981 -3.176999999999964
0007f0 80 4d 62 10 58 39 06 c0 80 4d 62 10 58 39 03 c0
       -2.777999999999963 -2.402999999999963
